FlowerEmbedding/crime_siren.pt (torch, 3141 bytes, 5 tensors)

network.0.omega f4 [1, 1, 3]
0	0x3f7e6d29	0.99385315
1	0x41f3fc43	30.498175
2	0x426ffd36	59.997276

network.0.linear.weight f4 [8, 1]
0	0x3efabf56	0.48974103
1	0xbf699c02	-0.91253674
2	0x3b8065d2	0.003918388
3	0x3738f4a9	1.1024219e-05
4	0xbee45e7c	-0.44603336
5	0xbf7ccfee	-0.98754776
6	0x3f5602ed	0.83598214
7	0x3f25eca9	0.6481424

network.0.linear.bias f4 [8]
0	0xbf0ed3b0	-0.5579176
1	0xbf37e6de	-0.7183665
2	0xbe36613a	-0.17810526
3	0x3e0c430a	0.13697448
4	0xbf7d3817	-0.9891371
5	0xbef09662	-0.46989733
6	0x3f77c805	0.9678958
7	0x3c9e317a	0.019310702

network.1.weight f4 [3, 24]
0	0x3c97e256	0.018540543
1	0xbd6ba394	-0.057529047
2	0x3d1d7a5e	0.038446777
3	0x3d9c4e98	0.07632178
4	0xbd850502	-0.06495096
5	0x3c786195	0.015159984
6	0xbd51f808	-0.05126193
7	0x3e645bca	0.2230064
8	0x3d571ec8	0.05251959
9	0x3e5759db	0.21030371
10	0xbe7abba9	-0.24485649
11	0x3e8a6be5	0.27035442
12	0x3df32864	0.11872938
13	0x3d3eb746	0.046561502
14	0xbc09ef15	-0.008418818
15	0xbd4fc991	-0.050729338
16	0x3de4e468	0.111763775
17	0x3da8c4f7	0.08240693
18	0x3d3b6023	0.04574598
19	0x3d0393b7	0.032123294
20	0xbdaf52d2	-0.085607186
21	0x3c8c418b	0.017121097
22	0x3e107769	0.14108051
23	0x3ce81f38	0.028335199
24	0x3a06c8eb	0.00051416334
25	0x3ddea358	0.10870999
26	0xbd327c4d	-0.043575574
27	0x3d4b9652	0.049703903
28	0xbd5030f1	-0.050827924
29	0x3d4a404a	0.049377717
30	0x3e762b97	0.24040066
31	0x3d4a2949	0.04935578
32	0x3cd5ebf3	0.026113486
33	0xbe56397d	-0.20920368
34	0x3e41fccb	0.18944089
35	0xbe4584a8	-0.19288886
36	0xbd6161d9	-0.055024955
37	0xbdb1fa77	-0.086903505
38	0x3cd58b1a	0.026067305
39	0x3d64bfa3	0.05584682
40	0xbd9746f6	-0.073865816
41	0x3c8e3a4d	0.017361784
42	0xbc72bf93	-0.014816183
43	0x3d351418	0.044208616
44	0x3e76b226	0.24091396
45	0xbc172fb4	-0.009227682
46	0xbd890b5d	-0.066916205
47	0xbd666e6a	-0.056257643
48	0xbd006f0f	-0.031355914
49	0x3d0c7ce5	0.034298796
50	0xbd916e39	-0.071011014
51	0x3dcaf44d	0.09909878
52	0xbdf57023	-0.11984279
53	0x3d16e1a1	0.03683627
54	0x3e868c22	0.26278788
55	0xbe1aa82a	-0.15103212
56	0xbdc958ec	-0.098314136
57	0x3d18871e	0.037238233
58	0xbbd46305	-0.0064815306
59	0x3dd61215	0.104526676
60	0xbcbd26c3	-0.023089772
61	0xbd8226c6	-0.06355052
62	0x3d8fdb92	0.070243016
63	0x3dbe5b41	0.09294749
64	0xbcc3cd5c	-0.023901634
65	0x3dd9f0af	0.1064161
66	0xbd78200b	-0.060577434
67	0xb9c2268c	-0.00037031283
68	0xbd4ec772	-0.050483175
69	0xbd3dd9ab	-0.046350162
70	0x3e193b1c	0.14963955
71	0xbd1002ad	-0.0351588

network.1.bias f4 [3]
0	0x3e34cddb	0.17656653
1	0xbe77bc39	-0.24192895
2	0xbe6ea2a6	-0.23304233
