FlowerEmbedding/crime_siren_multi.pt (torch, 43417 bytes, 8 tensors)

network.0.omega f4 [1, 1, 8]
0	0x3f8240fe	1.0176084
1	0x4116e264	9.430271
2	0x418e9262	17.821476
3	0x41d22cd2	26.271885
4	0x420ae167	34.72012
5	0x422c8f56	43.139977
6	0x424e58f2	51.58686
7	0x426ffec5	59.9988

network.0.linear.weight f4 [32, 27]
0	0xbd3e8798	-0.04651603
1	0x3cf42576	0.029803019
2	0xbc8a3ea6	-0.016875576
3	0xbd02b9eb	-0.031915586
4	0xba2f9a06	-0.00066986715
5	0xbd02d531	-0.031941596
6	0xbcafaadd	-0.021443779
7	0xbc1b2034	-0.009468127
8	0x3ccc6ad7	0.024953289
9	0x3ce77f6b	0.028259
10	0x3affbaa7	0.0019510583
11	0x3ce3c9be	0.02780616
12	0xbbe3b81d	-0.0069494382
13	0xbd77029e	-0.06030523
14	0x3b8c0027	0.004272479
15	0xbcc24847	-0.023716105
16	0xbcbf48a0	-0.02335006
17	0xbcbb4f2d	-0.022864902
18	0xbd125921	-0.03572953
19	0x3d028fcf	0.031875428
20	0xbc1c7b47	-0.009550876
21	0xbc859447	-0.016306056
22	0xbc3eb7c6	-0.011640495
23	0xbce4c0f3	-0.027924037
24	0xba28c4f2	-0.00064380385
25	0xbc476275	-0.01216947
26	0xbca791f7	-0.020455344
27	0xbc00a8c5	-0.007852738
28	0xbc2a7945	-0.0104048895
29	0x3cca5719	0.024699735
30	0x3cc5d8e5	0.024151275
31	0xbc567c31	-0.013091133
32	0x3d3fb8a7	0.046806958
33	0x3d427e87	0.047483947
34	0x3bd859c9	0.0066025
35	0xbc14f1ee	-0.009090884
36	0xbb843f3c	-0.0040358584
37	0x3ba6f2b1	0.005094849
38	0xbbfc41db	-0.0076982803
39	0xbaaf84d7	-0.001339103
40	0x3c7b4729	0.01533679
41	0xbc581283	-0.013188007
42	0xbce7696b	-0.02824851
43	0xbd250886	-0.04029133
44	0xbc3f550d	-0.0116779925
45	0x3cf3ab22	0.029744688
46	0x3c0d230f	0.008614316
47	0x3c88de19	0.016707467
48	0xbd64e790	-0.055884898
49	0x3ce5f9d7	0.028073234
50	0x3d066c2e	0.032818012
51	0xbc7d9dc0	-0.015479505
52	0x39ea6556	0.0004470746
53	0xbd38ff64	-0.045165434
54	0x3d0d0165	0.034425158
55	0xbcc68737	-0.024234397
56	0x3c75e914	0.015009183
57	0xb97c70a0	-0.00024074549
58	0xbc4992d1	-0.01230307
59	0x3ccb6d43	0.024832373
60	0x3c29017a	0.010315293
61	0x3c8099da	0.015698362
62	0x3ce8a631	0.028399559
63	0x3ac9d556	0.0015398662
64	0xbce37c25	-0.027769158
65	0x3bae15b2	0.005312645
66	0x3cdaf76b	0.026729306
67	0x3c5edb79	0.013602131
68	0x3cdd1f92	0.026992593
69	0xbb9e95c2	-0.00483963
70	0x3c900708	0.017581478
71	0x3c78cd2d	0.0151856365
72	0x3bf8159e	0.0075709363
73	0x3c7e1a84	0.0155092515
74	0x3c4a516e	0.012348516
75	0x3cf73be0	0.030179918
76	0xbd845904	-0.06462291
77	0x3d1bd961	0.038049106
78	0x3c7c6bdb	0.015406574
79	0x3c2495d5	0.010045488
80	0xbc437ea6	-0.011932051
81	0x3d06a44a	0.032871522
82	0xbd01c855	-0.031685192
83	0x3c8a6dbf	0.016898034
84	0xbd7cdde2	-0.06173504
85	0x3c5e0e96	0.013553282
86	0xbc6b9549	-0.014378854
87	0xbb3af579	-0.002852766
88	0xbbd62227	-0.006534833
89	0x3c8d205f	0.01722735
90	0x3cfdc480	0.030977488
91	0xbc8b87ae	-0.01703247
92	0x3cbc9bc7	0.0230235
93	0x3d1d3794	0.03838308
94	0xbd41a24e	-0.047273926
95	0xbd2f4d07	-0.04279807
96	0xbcca9006	-0.024726879
97	0x3c01431c	0.007889535
98	0xbca28694	-0.019839562
99	0xbd3aa881	-0.045570854
100	0xbbc701eb	-0.0060732267
101	0xbbf493f0	-0.0074639246
102	0xbb30543d	-0.0026905679
103	0xbc9c271a	-0.019061614
104	0xbca83341	-0.020532252
105	0xbbf34042	-0.0074234316
106	0xbd1b2454	-0.037876442
107	0xbd06d399	-0.03291664
108	0x3d17a64a	0.03702382
109	0xbc44134d	-0.011967492
110	0xbd50359b	-0.050832372
111	0x3cc8addd	0.024496967
112	0x3be125c9	0.0068709594
113	0xbcb99b9d	-0.02265721
114	0x3c5b96a7	0.013402618
115	0xb9066052	-0.00012815118
116	0xbd251b4f	-0.040309247
117	0xbb127120	-0.002234526
118	0x3d08014a	0.033204354
119	0x3c7cbc73	0.015425789
120	0x3d0d6b46	0.034526132
121	0x3b7104c6	0.0036776527
122	0x3bb27ac0	0.005446762
123	0x3b54fff5	0.0032501195
124	0x3c97de70	0.018538684
125	0xbd357b68	-0.044307142
126	0xbcbd2040	-0.023086667
127	0xbd2269a7	-0.03965154
128	0x3d479441	0.04872537
129	0x3c7eb75f	0.015546649
130	0xbc0ef3f5	-0.008725156
131	0x3bef1817	0.007296573
132	0x3ce7bdd9	0.028288769
133	0x3d28e099	0.041229818
134	0x3cbcc75f	0.023044286
135	0xbc5c56d5	-0.013448437
136	0x3cccc0bd	0.024994249
137	0x3abb39ac	0.0014284155
138	0xbcb35752	-0.021892224
139	0x3ca19a5b	0.019726923
140	0x3cea5c61	0.028608503
141	0xbcd2dbaa	-0.02573951
142	0x3c018d96	0.007907292
143	0xbd017079	-0.031601403
144	0xbd243c1c	-0.040096387
145	0x3ce41bca	0.027845282
146	0xba4f3c81	-0.0007905439
147	0xbc80f6e1	-0.015742721
148	0x3bf8231f	0.007572546
149	0xbd326d99	-0.04356155
150	0xbbc0c6bb	-0.0058830655
151	0x3c7f4753	0.01558097
152	0x3cdf4b2b	0.027257523
153	0xbcc18e2f	-0.023627369
154	0x3c9fe1c7	0.019516839
155	0x3c10b6b0	0.008832619
156	0x3c087d12	0.0083306
157	0xbbb50125	-0.005523818
158	0xbd08f325	-0.033435006
159	0xbccdf23f	-0.025139926
160	0x3d5269ea	0.05137054
161	0x3cd76df9	0.026297556
162	0xbd1e32d2	-0.038622685
163	0xbc7fc3b4	-0.015610624
164	0xbced54a3	-0.028971022
165	0x3cb991fd	0.02265262
166	0xba09ef7b	-0.00052618206
167	0x3c0a7cf3	0.008452642
168	0xbb1c6d8b	-0.0023869004
169	0xbba1eabd	-0.004941313
170	0x3cbaf38c	0.02282121
171	0x3c003f7f	0.007827639
172	0x3c834be5	0.0160274
173	0xbca953b4	-0.020669796
174	0x3b391c54	0.0028245645
175	0x3c20287e	0.009775279
176	0x3beef0fc	0.007291911
177	0xbc83541e	-0.016031321
178	0xbc7c93c3	-0.0154160885
179	0x3ca30767	0.01990099
180	0x3c8ea0bb	0.017410627
181	0xbc80b57a	-0.015711535
182	0xbd0783ff	-0.033084866
183	0x3d5353d0	0.0515936
184	0x3c8ac0c2	0.016937617
185	0xbd05c8bc	-0.03266214
186	0x3cd25364	0.02567453
187	0x3d0c770d	0.034293223
188	0x3c9839c2	0.018582229
189	0x3d2c84fe	0.04211902
190	0x3d131619	0.035909746
191	0xbbb616cd	-0.0055569173
192	0xbc925142	-0.017861012
193	0xbb8de624	-0.0043304134
194	0x3d26864b	0.040655416
195	0x3cb6bc85	0.02230669
196	0x3ca83a67	0.02053566
197	0x3d0f5451	0.03499252
198	0xbc93c703	-0.018039232
199	0x3b06d7ab	0.0020575325
200	0xbb5c7d55	-0.003364404
201	0x3d3b6172	0.045747228
202	0x3cfa3b8c	0.030545972
203	0x3d1faee5	0.03898515
204	0xbc122fc9	-0.008922526
205	0x3c43ebcc	0.011958074
206	0x3c7c6fe0	0.015407532
207	0xbbc3391f	-0.005957737
208	0xbd200827	-0.039070275
209	0x3c92e096	0.017929357
210	0x3d0e01b7	0.034669604
211	0xbcb38bb6	-0.021917205
212	0xbd0ab67c	-0.033865437
213	0xba274826	-0.00063812954
214	0x3b0ccf5d	0.0021485903
215	0xbc27cfef	-0.010242446
216	0xbc543e96	-0.012954375
217	0xbcbd2360	-0.023088157
218	0x3cb049d9	0.021519588
219	0x3c550250	0.01300104
220	0x3d129405	0.035785694
221	0xbca99029	-0.020698624
222	0x3d5c8f3c	0.053847536
223	0xbca7ac3b	-0.020467868
224	0xbcf13830	-0.029445738
225	0x3bb847c3	0.005623789
226	0xbccb4b85	-0.024816284
227	0x3b748579	0.0037311001
228	0x3ce9c135	0.028534511
229	0xbceceb64	-0.028920837
230	0x3c0f43e5	0.008744215
231	0xba9b686c	-0.0011856682
232	0xbd234bf3	-0.039867353
233	0x3d916b03	0.07100489
234	0xbc6215bc	-0.013799127
235	0xbbb93ffe	-0.0056533804
236	0xba8db9c0	-0.0010812804
237	0x3bdb5e7d	0.0066946135
238	0x3cd7defe	0.026351448
239	0x3c8b6b7e	0.01701903
240	0xbd0c7895	-0.034294683
241	0x39e089b9	0.0004282722
242	0xbab6d9fe	-0.0013950465
243	0x3c5d9dfb	0.013526435
244	0x3b9154ad	0.004435143
245	0xbd84399b	-0.064563
246	0x3c9549d6	0.018223684
247	0x3d1a2a01	0.037637714
248	0xbc17d5ff	-0.009267329
249	0xbc9fbc64	-0.019499011
250	0xbd2995ce	-0.04140263
251	0xbc7a0ae0	-0.015261382
252	0x3c503d95	0.012709995
253	0x3c2395fb	0.009984489
254	0x3d01f5f8	0.031728715
255	0x3a863c31	0.0010241327

network.0.linear.bias f4 [32]
0	0x3e0abcdd	0.13548608
1	0x3dd5c90c	0.10438737
2	0x3e085f6f	0.13317655
3	0x3d117f61	0.03552187
4	0xbdaa43ce	-0.08313714
5	0x3cd975ef	0.026545493
6	0xbd9e37d3	-0.077254914
7	0x3e384cdd	0.17998071
8	0xbe330cda	-0.17485371
9	0xbe082793	-0.13296346
10	0xbc037b7d	-0.008025047
11	0xbe272de5	-0.16326101
12	0x3e22d267	0.15900575
13	0xbbd7cbde	-0.006585582
14	0x3d3140c5	0.04327466
15	0x3dfd2104	0.12359813
16	0xbe2bb1be	-0.16767022
17	0x3d20123a	0.039079882
18	0xbdf27c55	-0.11840121
19	0x3e203dce	0.15648577
20	0x3d3e6f48	0.046492845
21	0xbcd0349c	-0.025415711
22	0x3dc5370f	0.09629642
23	0x3e4701fb	0.19434349
24	0xbd3c3a17	-0.045953836
25	0x3e089196	0.13336787
26	0xbe238324	-0.15967995
27	0xbe38abf2	-0.18034342
28	0x3e3d0dab	0.18462245
29	0xbd302fc3	-0.0430143
30	0x3d386a50	0.045023263
31	0xbe00d939	-0.12582864

network.1.omega f4 [1, 1, 8]
0	0x3fa191b1	1.2622586
1	0x4114ff80	9.312378
2	0x418ed778	17.85521
3	0x41d22fdd	26.27337
4	0x420ac4a7	34.692043
5	0x422c9a3a	43.15061
6	0x424e56f2	51.584908
7	0x427024f6	60.036095

network.1.linear.weight f4 [32, 256]
0	0xbc041cce	-0.008063508
1	0xbcacd6df	-0.021098552
2	0xbcc15335	-0.023599247
3	0xbca12b57	-0.019673986
4	0x3cbb7cf8	0.022886738
5	0xbb1f46ea	-0.0024303743
6	0x3c338b0b	0.010958443
7	0x3d0c963c	0.034322962
8	0xb9857449	-0.00025454376
9	0xbb05ec67	-0.0020435096
10	0x3b1a25d7	0.002352109
11	0x3cabf4e8	0.020990804
12	0x3aeedb12	0.0018223247
13	0xbbeef1be	-0.0072920015
14	0xbc9eb3ce	-0.019372847
15	0x3cc3f556	0.023920696
16	0x3b9c500c	0.0047702845
17	0x3c9fad6a	0.01949187
18	0x3c987f80	0.018615484
19	0x3c51f9bb	0.012815888
20	0xbd29b20c	-0.041429564
21	0x3cbdbac5	0.023160348
22	0x3c5cded1	0.013480858
23	0x3c3fe5c4	0.011712495
24	0xbb4147ad	-0.0029492185
25	0xbc28a5fa	-0.010293478
26	0x3c211f4f	0.009834125
27	0x3d04a156	0.032380424
28	0xbc268316	-0.010163089
29	0xbc056b39	-0.00814324
30	0xbcc6e32e	-0.02427825
31	0xbb8315f8	-0.0040004216
32	0x3ccab6ac	0.024745308
33	0x3b2613d9	0.002534142
34	0xbcade371	-0.021226617
35	0xbaf81fde	-0.0018930396
36	0xba4e1346	-0.00078611483
37	0x3c2547fb	0.010087962
38	0x3cdd7aab	0.027036032
39	0x3c6c3885	0.014417772
40	0x3c5a39a9	0.013319411
41	0x3c690302	0.0142219085
42	0x3ce01f3a	0.02735864
43	0xbbedbf10	-0.0072554424
44	0x3ca17e11	0.019713433
45	0x3c014f1a	0.007892394
46	0x3cad972f	0.021190254
47	0x3cafac75	0.021444539
48	0x391fbf2e	0.00015234642
49	0x3ca227d9	0.019794391
50	0x3aeae6f9	0.0017921618
51	0x3b1bf360	0.0023796186
52	0x3d20f9b2	0.039300628
53	0x3ca96d14	0.020681895
54	0xbb8ae127	-0.004238266
55	0xbc90813a	-0.017639745
56	0x3c53de73	0.012931454
57	0x3cb289ef	0.021794287
58	0x3bd5926d	0.0065176995
59	0x3c99763b	0.018733134
60	0xbd0a8d6b	-0.033826273
61	0xbaa025ee	-0.0012218335
62	0x3ca8541d	0.02054792
63	0xbbb28923	-0.005448477
64	0x3b20f46f	0.0024559756
65	0xbc24e2e1	-0.010063858
66	0xbcd6d825	-0.026226113
67	0x3caa43e3	0.020784324
68	0xbc4607a6	-0.0120867845
69	0xbcffa3ad	-0.031205976
70	0x3b983f4f	0.004646219
71	0x3ac25e45	0.001482912
72	0xbcf4705a	-0.02983873
73	0xbc3d0e4c	-0.011539053
74	0x3b112b92	0.0022151214
75	0x3c855760	0.016277015
76	0x3c54ec37	0.012995771
77	0x3d364b8f	0.044505652
78	0x3c9e5c2d	0.019331062
79	0xbbef5d5b	-0.00730483
80	0x3c2d63b8	0.010582857
81	0x3ca40f09	0.0200267
82	0xbcab2f58	-0.020896599
83	0xbc1c5bdf	-0.009543388
84	0x3b28f1f9	0.0025778993
85	0x3c33b31f	0.010967999
86	0x3c121cc5	0.008917992
87	0x3d4978e6	0.049187563
88	0x3ca5e087	0.020248665
89	0x3c3cd386	0.0115250405
90	0x3cf6243c	0.030046575
91	0x3c68437b	0.014176245
92	0xbd3d2c2c	-0.046184704
93	0x3c19c65c	0.0093856715
94	0xbc631cae	-0.013861818
95	0x3bfdb91a	0.007743013
96	0xbb912b8f	-0.0044302414
97	0xbc6b6b13	-0.01436879
98	0xbce0e1dc	-0.027451448
99	0xbc97ad65	-0.018515298
100	0xbcca34fb	-0.024683466
101	0xbc10ccb9	-0.008837872
102	0xbc952cf3	-0.01820991
103	0x3d2adfea	0.041717447
104	0xbcd80f85	-0.026374588
105	0xbca97f56	-0.020690601
106	0xba936c3a	-0.0011247464
107	0x3c501fb9	0.012702876
108	0x3ce29005	0.027656564
109	0x3c442cb5	0.01197355
110	0xba4d1425	-0.0007823131
111	0xbb240156	-0.002502521
112	0xbd10dfc0	-0.035369635
113	0xbb83385b	-0.004004521
114	0x3c84fe19	0.016234444
115	0x3bfc87c5	0.0077066147
116	0xbc8d90e8	-0.01728101
117	0x383228bf	4.2476455e-05
118	0xba8993f6	-0.0010496366
119	0x3c2e8a74	0.010653127
120	0x3b0c5138	0.0021410715
121	0xbaf652aa	-0.0018792946
122	0x3cc99d76	0.024611216
123	0x3ccf03fc	0.025270455
124	0xbc5a7424	-0.013333354
125	0x3c4ed752	0.012624579
126	0xbc93f4c5	-0.018061051
127	0x3ccfecbc	0.025381438
128	0xbc62e75f	-0.0138491085
129	0xbca5a90d	-0.020222211
130	0xbc12dc97	-0.0089637255
131	0xbcf330cd	-0.029686356
132	0xbc4d7aa7	-0.01254145
133	0x3c30842a	0.010773698
134	0x3cc67869	0.024227338
135	0x3b7022c9	0.0036641827
136	0x3c54dd73	0.012992251
137	0xbca9e8bd	-0.020740861
138	0xbd0a756d	-0.033803392
139	0xbcf456b0	-0.029826492
140	0x3cdce27f	0.02696347
141	0xbc2cd627	-0.010549105
142	0xbcb51e83	-0.022109276
143	0x3c86dbef	0.016462294
144	0x3c123429	0.008923569
145	0xbc281004	-0.010257725
146	0xbc0c3673	-0.008557904
147	0x3c04858a	0.008088479
148	0x3c87cc75	0.016576985
149	0x3c454754	0.012040932
150	0xbc97312b	-0.018456062
151	0x3a39bf9a	0.0007085741
152	0xbb9f9060	-0.0048695058
153	0x3b7565ba	0.0037444667
154	0xbc8e9861	-0.017406644
155	0x3bb76977	0.005597289
156	0x3ca5e43d	0.020250434
157	0x3b77cc12	0.0037810844
158	0xbc36b0f8	-0.011150591
159	0xbc0941c6	-0.008377498
160	0x3ca38004	0.019958504
161	0x3bdf070a	0.006806259
162	0xbcc0dd29	-0.023542957
163	0xbc70759c	-0.014676478
164	0x3cc1fb20	0.023679316
165	0xbc7c09c9	-0.015383192
166	0x3c8f948c	0.017526887
167	0xbb352f31	-0.0027646536
168	0x3ba314c8	0.0049768426
169	0xbc76c24c	-0.015060972
170	0xbc09279a	-0.008371258
171	0x3c266e32	0.010158109
172	0x3d296981	0.041360382
173	0x3d01b9e6	0.031671427
174	0x3cc77e66	0.024352264
175	0xbcade6a4	-0.021228142
176	0x3ca6ee04	0.020377167
177	0x3ba6606d	0.005077413
178	0x3c135ff5	0.008995046
179	0xbcd2360d	-0.025660539
180	0x3cbe6ba7	0.023244692
181	0x3bd2cace	0.0064328676
182	0x3c8a3abe	0.016873714
183	0x3ad86564	0.0016509709
184	0xbc6b73cb	-0.014370869
185	0x3ca5b077	0.020225747
186	0xbc2f6f81	-0.010707737
187	0xbbd6621e	-0.006542458
188	0xbca7ea17	-0.020497365
189	0x3d35b01d	0.044357408
190	0xbcc5015b	-0.024048498
191	0xbbaca966	-0.0052692173
192	0xbbdbf804	-0.0067129154
193	0x3b29b314	0.0025894092
194	0xbc413965	-0.011793469
195	0xbc17a9c7	-0.009256787
196	0x3c3303a0	0.010926157
197	0x3cb7b8bd	0.022426957
198	0x3b068057	0.0020523274
199	0x3c7b0422	0.01532081
200	0x3cf08db6	0.029364448
201	0xbcfcbf22	-0.030852858
202	0xbcc99556	-0.024607342
203	0xba9f03d9	-0.0012131884
204	0xbc06e531	-0.008233354
205	0xbb44babf	-0.0030018536
206	0xbc22b2b0	-0.009930298
207	0xbb8f1dfc	-0.004367588
208	0xbbbb5610	-0.0057170466
209	0xbbe3bf04	-0.006950261
210	0xbcab77b5	-0.020931104
211	0x3ce45113	0.02787069
212	0xbc7d7d30	-0.015471742
213	0xbb062442	-0.0020468389
214	0xbce18f34	-0.027534105
215	0x3a6efe09	0.00091168337
216	0x3cabb4bc	0.020960204
217	0x3c19cb74	0.009386886
218	0x3b704904	0.0036664614
219	0xbd141b2d	-0.03615873
220	0x3bcdf5c9	0.0062854034
221	0xbcbfc407	-0.023408903
222	0x3c92f11f	0.017937241
223	0xbbbdb1e7	-0.00578903
224	0x3c0b13e1	0.008488626
225	0xbc913531	-0.017725559
226	0xba26829e	-0.0006351861
227	0xbc6d53dd	-0.014485327
228	0xbc79539f	-0.015217691
229	0x3d1eb3d3	0.038745712
230	0xbb86ca16	-0.004113446
231	0x3b3614bd	0.0027783357
232	0x3bd6d40d	0.00655604
233	0xbaec0ded	-0.0018009521
234	0x3c82ba6e	0.015958037
235	0x3c8b6a4e	0.017018463
236	0xbcc4c0db	-0.024017742
237	0xbcbe69f8	-0.02324389
238	0xbb88748c	-0.004164284
239	0xbbe4ac44	-0.0069785435
240	0x3c3d1bdf	0.0115422895
241	0x3cda6525	0.026659558
242	0x3bbbeec3	0.0057352497
243	0xbbd87b67	-0.0066065076
244	0xbd0adc9a	-0.03390179
245	0xbcdf181e	-0.02723318
246	0xbc63e4a1	-0.01390949
247	0x3c6ef1f5	0.014584054
248	0xbc976dc5	-0.01848496
249	0x3c192d12	0.0093491245
250	0x3ba861e8	0.0051386245
251	0x3c46e717	0.012140057
252	0xbbfc2579	-0.007694897
253	0xba8247e7	-0.0009939641
254	0x3bc8aab1	0.0061238636
255	0xbc6b7927	-0.014372147

network.1.linear.bias f4 [32]
0	0x3cdaad94	0.026694097
1	0x3cbbabfd	0.022909159
2	0xbd4d6648	-0.05014637
3	0xbd61b084	-0.05509998
4	0xbd0a3e8b	-0.033751052
5	0x3cb82a7e	0.0224812
6	0x3c7f4d6d	0.015582425
7	0xbd49647b	-0.04916809
8	0x3d428c55	0.047497112
9	0xbd01d2f1	-0.03169531
10	0x3b9772b8	0.00462183
11	0x3b177162	0.0023108353
12	0x3c452eb0	0.012035057
13	0xbd50a001	-0.05093384
14	0x3c569ee3	0.013099405
15	0xbda3d31b	-0.079992495
16	0xbce82e77	-0.028342469
17	0x3d093966	0.033502005
18	0xbcb7f3a1	-0.022455039
19	0x3b58e5ca	0.003309595
20	0x3c921063	0.01783008
21	0xbd8cd81f	-0.06877159
22	0x3c81aa96	0.015828412
23	0x3c9518ca	0.018200297
24	0x3d342b51	0.043986622
25	0x3d330e31	0.043714706
26	0x3d5c8aed	0.053843427
27	0xbca7d3ad	-0.020486677
28	0xbc256b72	-0.010096418
29	0xbcc297df	-0.023754058
30	0xbd036feb	-0.032089155
31	0xbd1710c4	-0.036881223

network.2.weight f4 [3, 256]
0	0x3d0b4766	0.034003638
1	0xbce41ab5	-0.027844766
2	0xbc49bca4	-0.012313042
3	0x3c84b31e	0.016198691
4	0xbcd491ca	-0.025948424
5	0xbd00ed31	-0.031476203
6	0xbd0f1f92	-0.034942217
7	0x3ce0965b	0.027415445
8	0x3e16815d	0.14697786
9	0xbd2548ad	-0.040352512
10	0xbcdaea7f	-0.026723145
11	0x3c17c202	0.009262564
12	0x3ce654ef	0.028116671
13	0x3cabf7d4	0.020992197
14	0x3d16cb77	0.036815133
15	0x39ab01f4	0.00032617117
16	0xbda13a98	-0.07872504
17	0xbb96d572	-0.0046030814
18	0x3d0da704	0.034583107
19	0x3c4df764	0.01257119
20	0xbc9e9cd3	-0.019361889
21	0xbd0cec05	-0.034404773
22	0x3c7ce1a9	0.015434661
23	0x3d25568e	0.040365748
24	0xbe06ea7e	-0.13175389
25	0xbc4c34bf	-0.0124637475
26	0x3d3fb2f6	0.04680153
27	0xbc7a139f	-0.015263467
28	0x3c3741b4	0.011185098
29	0xbd3e8465	-0.04651298
30	0xbd6f1f6b	-0.058379572
31	0x3bf82a8d	0.007573432
32	0x3e03a7b8	0.12856948
33	0x3d826476	0.06366818
34	0xbb9f5d2e	-0.004863403
35	0xbcd6e304	-0.026231296
36	0x3c35f057	0.011104665
37	0x3d42d832	0.04756946
38	0x3d7baa55	0.06144174
39	0x3c66c28e	0.014084471
40	0xbe0caf2b	-0.13738696
41	0x3c99c89e	0.01877242
42	0xbd27bf69	-0.040954027
43	0x3ca2fbf2	0.019895528
44	0xbcf91b55	-0.03040854
45	0x3bb1238d	0.0054058493
46	0xbcf2eaba	-0.029652942
47	0xbc89495c	-0.016758613
48	0x3d0d6bb5	0.034526546
49	0xbce848df	-0.02835506
50	0xbc38fbc2	-0.0112904925
51	0x3c864bab	0.016393503
52	0xbcd263fb	-0.02568244
53	0xbcb27a85	-0.021786937
54	0x3bc86c98	0.006116461
55	0x3d03f024	0.032211438
56	0xbd28636d	-0.041110445
57	0xbc80f8d0	-0.015743643
58	0xbc183457	-0.009289823
59	0xbd2106b2	-0.039313026
60	0x3ca51a88	0.020154253
61	0xbcc82f72	-0.024436686
62	0x3c72608b	0.014793525
63	0x3bdc335e	0.0067199906
64	0x3e51ae2f	0.20476602
65	0x3d2b8891	0.041878287
66	0x3cc0165e	0.023448166
67	0xbb62483c	-0.0034527918
68	0xbc13191e	-0.008978156
69	0x3cc8bba6	0.02450354
70	0x3cb0960f	0.021555929
71	0x3c997cd2	0.018736277
72	0xbd859107	-0.065218024
73	0xbd8ab007	-0.06771856
74	0xbcd52d0d	-0.026022458
75	0xbbb3bdc9	-0.0054852706
76	0x3d9af3b7	0.07566016
77	0x3d17557d	0.036946762
78	0xbcf16690	-0.02946785
79	0x3bb55990	0.0055343583
80	0x3c8a0cdc	0.016851835
81	0xbc86dd85	-0.01646305
82	0x3c41f40f	0.011837973
83	0x3ce79e06	0.028273594
84	0x3d31f255	0.043443996
85	0x3d29627a	0.04135368
86	0x3bfe2166	0.0077554462
87	0xbcc9af9e	-0.024619874
88	0x3ba4303c	0.005010633
89	0xbc69515c	-0.014240589
90	0x3cb33803	0.021877294
91	0xbcd64608	-0.02615644
92	0xbcf59ac1	-0.029981019
93	0xbce6b54c	-0.028162621
94	0x3c5e68c3	0.013574782
95	0xbc6dca57	-0.014513574
96	0x3ba11aa7	0.0049165073
97	0x3d4f3112	0.050583906
98	0x3c16acbb	0.009196456
99	0x3d1da756	0.038489662
100	0xbd272edb	-0.04081617
101	0xbbd86ca7	-0.0066047492
102	0xbd329c90	-0.04360634
103	0x3d52e5f0	0.051488817
104	0xbcba4e9d	-0.022742564
105	0x3c95ed70	0.018301696
106	0x3d4ff89a	0.050774194
107	0x3d17cd8d	0.037061263
108	0xbd408cba	-0.047009207
109	0xbc5b2b07	-0.013376958
110	0xbadbdfe3	-0.0016775097
111	0xbc67c4c3	-0.014146033
112	0xbdca09c0	-0.09865141
113	0xbd4191ff	-0.047258373
114	0xbd44466a	-0.047918715
115	0x3d39da09	0.04537395
116	0x3aa8b02a	0.0012869884
117	0x3bf587a1	0.007492975
118	0xbb7369cc	-0.0037141917
119	0x3c8e5193	0.017372882
120	0xbdf2527b	-0.11832138
121	0xbc9cd390	-0.01914385
122	0x3d226cfe	0.039654724
123	0x3cf04f2a	0.029334623
124	0x3d16983a	0.03676627
125	0xbcdf3977	-0.027249081
126	0x3b58c3dd	0.0033075728
127	0xbcf885c9	-0.030337231
128	0x3d3bacef	0.04581922
129	0x3d9f9082	0.077912346
130	0xba97953f	-0.0011564865
131	0xbd5b8078	-0.053589314
132	0x3d47fc34	0.048824504
133	0x3cdd1219	0.026986169
134	0xbc558940	-0.013033211
135	0xbd2db293	-0.04240663
136	0xbd33854b	-0.04382829
137	0x3cd1a658	0.025592014
138	0xbcd7dcab	-0.02635034
139	0x3ceb438d	0.028718734
140	0xbd523da7	-0.051328328
141	0xbd3e36e9	-0.046439085
142	0x3acacb21	0.0015471914
143	0xbcb150f6	-0.02164505
144	0x3ccd2b50	0.025045067
145	0x3c9607a4	0.01831419
146	0x3d50af14	0.050948218
147	0xbd1e8e00	-0.03870964
148	0xbd311ae1	-0.043238524
149	0xbb34190f	-0.0027480756
150	0xbc258f47	-0.010104961
151	0x3ca81612	0.020518336
152	0x3d54e97f	0.05198049
153	0xbc10ee23	-0.008845839
154	0xbcded7e2	-0.02720255
155	0xbd68d077	-0.056839433
156	0xbd16c8ff	-0.03681278
157	0x3cbd6c42	0.02312291
158	0x3ab54001	0.0013828279
159	0x3b33ebe9	0.0027453846
160	0xbd521b0c	-0.051295325
161	0xbbcf4308	-0.0063251294
162	0xbd25d14f	-0.040482815
163	0xbd531454	-0.05153306
164	0x3ccd4cf8	0.025061116
165	0xbd5811ef	-0.052751478
166	0x3c20837e	0.009796975
167	0xbb9beef9	-0.0047587124
168	0xbe27bfb3	-0.16381721
169	0xbcd5062c	-0.02600392
170	0x3c5acdfa	0.013354773
171	0x3d4306e2	0.047613986
172	0xbc4998db	-0.01230451
173	0x3d470e74	0.048597768
174	0x3cd8eb2e	0.02647933
175	0xbcf3e62d	-0.029772842
176	0xbcfa5185	-0.03055645
177	0x3d2280fc	0.03967379
178	0x3c141ba8	0.009039797
179	0xbd7eed76	-0.06223818
180	0x3bb6fa5a	0.0055840435
181	0x3bf0dc6b	0.0073504946
182	0x3d084c7b	0.033276062
183	0x3a760075	0.00093842234
184	0xbd6851b3	-0.05671854
185	0xbbe5541c	-0.006998552
186	0x3bb3e0d7	0.0054894495
187	0x3c1ce0d0	0.009575084
188	0xbbda207f	-0.006656706
189	0x3bcf3edb	0.0063246316
190	0xbc02dbf5	-0.007987012
191	0x3d268a6e	0.04065936
192	0xbe155d47	-0.14586364
193	0x3a9cfd2f	0.001197731
194	0x3c19c77b	0.009385939
195	0x3b79f254	0.0038138824
196	0x3d031e35	0.03201123
197	0x3cbddcfa	0.023176659
198	0x3cffb715	0.03121523
199	0xbcd5cc7a	-0.026098479
200	0x3ddd3984	0.10801986
201	0x3a94a3e3	0.0011340346
202	0x3d515bb0	0.05111283
203	0xbc7a1d17	-0.015265725
204	0x3d6c35d6	0.05766853
205	0x3cecf600	0.028925896
206	0x3bf0ec08	0.007352356
207	0x3bf81aee	0.0075715696
208	0x3da8cd90	0.08242333
209	0xbd210801	-0.039314274
210	0x3d079f95	0.033111174
211	0xbbf97105	-0.00761235
212	0x3bbc69e3	0.0057499274
213	0x3a308781	0.0006734059
214	0x3c37af0d	0.011211169
215	0xbd1b2937	-0.037881102
216	0xbddc6a45	-0.10762457
217	0xbb28f435	-0.0025780324
218	0x3c657474	0.014004815
219	0xbd627eff	-0.055296894
220	0xbc483c9c	-0.012221482
221	0x3cf88505	0.030336866
222	0xbb1bcb8f	-0.0023772453
223	0xbc60a091	-0.013710157
224	0xbe193738	-0.1496247
225	0x3d1f2f03	0.038863193
226	0xbd433ead	-0.047667194
227	0x3c3ddeee	0.011588795
228	0xbbdd2432	-0.0067486996
229	0x3acad3a6	0.0015474453
230	0x3c661842	0.014043869
231	0x3ce0178b	0.027354976
232	0xbdc17fe8	-0.09448224
233	0xba95e4b0	-0.0011435952
234	0x3c083657	0.008313737
235	0x3c04722c	0.008083861
236	0x3d0e9499	0.034809683
237	0x3c1b37ed	0.009473783
238	0xbce42b65	-0.027852723
239	0x3d0cd097	0.034378614
240	0xbd19b296	-0.03752383
241	0x3be301ec	0.0069277193
242	0x3cec5f0c	0.028853916
243	0xbc0995be	-0.008397518
244	0xbd1793a6	-0.037006043
245	0xbbc3fbac	-0.0059809294
246	0xba833ef1	-0.0010013265
247	0x3c1603c1	0.009156168
248	0x3db5d205	0.08877949
249	0x3dc2069c	0.09473917
250	0x3ca0a513	0.019609964
251	0x3cc41a90	0.023938447
252	0xbd3cfe47	-0.046140935
253	0x3d432dc7	0.04765108
254	0xbcaf3938	-0.021389589
255	0x3c967a39	0.018368827

network.2.bias f4 [3]
0	0x3e0beeca	0.1366531
1	0xbe5ce4a0	-0.21571589
2	0x3d65267b	0.0559449
